…
2020-03-15 07:48:15.851990: I tensorflow/stream_executor/cuda/cuda_gpu_executor.cc:981] successful NUMA node read from SysFS had negative value (-1), but there must be at least one NUMA node, so returning NUMA node zero
2020-03-15 07:48:15.852853: I tensorflow/core/common_runtime/gpu/gpu_device.cc:1247] Created TensorFlow device (/job:localhost/replica:0/task:0/device:GPU:0 with 10368 MB memory) -> physical GPU (device: 0, name: GeForce GTX 1080 Ti, pci bus id: 0000:24:00.0, compute capability: 6.1)
Model: "sequential"
_________________________________________________________________
Layer (type)                 Output Shape              Param #   
=================================================================
conv2d (Conv2D)              (None, 86, 86, 20)        560       
_________________________________________________________________
activation (Activation)      (None, 86, 86, 20)        0         
_________________________________________________________________
dropout (Dropout)            (None, 86, 86, 20)        0         
_________________________________________________________________
conv2d_1 (Conv2D)            (None, 86, 86, 24)        4344      
_________________________________________________________________
activation_1 (Activation)    (None, 86, 86, 24)        0         
_________________________________________________________________
dropout_1 (Dropout)          (None, 86, 86, 24)        0         
_________________________________________________________________
conv2d_2 (Conv2D)            (None, 86, 86, 29)        6293      
_________________________________________________________________
activation_2 (Activation)    (None, 86, 86, 29)        0         
_________________________________________________________________
dropout_2 (Dropout)          (None, 86, 86, 29)        0         
_________________________________________________________________
conv2d_3 (Conv2D)            (None, 86, 86, 35)        9170      
_________________________________________________________________
activation_3 (Activation)    (None, 86, 86, 35)        0         
_________________________________________________________________
dropout_3 (Dropout)          (None, 86, 86, 35)        0         
_________________________________________________________________
conv2d_4 (Conv2D)            (None, 86, 86, 42)        13272     
_________________________________________________________________
activation_4 (Activation)    (None, 86, 86, 42)        0         
_________________________________________________________________
dropout_4 (Dropout)          (None, 86, 86, 42)        0         
_________________________________________________________________
global_average_pooling2d (Gl (None, 42)                0         
_________________________________________________________________
dropout_5 (Dropout)          (None, 42)                0         
_________________________________________________________________
flatten (Flatten)            (None, 42)                0         
_________________________________________________________________
dense (Dense)                (None, 2)                 86        
_________________________________________________________________
activation_5 (Activation)    (None, 2)                 0         
=================================================================
Total params: 33,725
Trainable params: 33,725
Non-trainable params: 0
_________________________________________________________________
2020-03-15 07:48:16.579029: I tensorflow/core/profiler/lib/profiler_session.cc:159] Profiler session started.
2020-03-15 07:48:16.579098: I tensorflow/core/profiler/internal/gpu/cupti_tracer.cc:1363] Profiler found 1 GPUs
…
