…
2020-03-13 06:33:20.474911: I tensorflow/compiler/xla/service/service.cc:176]   StreamExecutor device (0): GeForce GTX 1080 Ti, Compute Capability 6.1
2020-03-13 06:33:20.474972: I tensorflow/core/common_runtime/gpu/gpu_device.cc:1096] Device interconnect StreamExecutor with strength 1 edge matrix:
2020-03-13 06:33:20.474985: I tensorflow/core/common_runtime/gpu/gpu_device.cc:1102]      
Model: "sequential"
_________________________________________________________________
Layer (type)                 Output Shape              Param #   
=================================================================
conv2d (Conv2D)              (None, 86, 86, 8)         224       
_________________________________________________________________
activation (Activation)      (None, 86, 86, 8)         0         
_________________________________________________________________
max_pooling2d (MaxPooling2D) (None, 43, 43, 8)         0         
_________________________________________________________________
conv2d_1 (Conv2D)            (None, 43, 43, 8)         584       
_________________________________________________________________
activation_1 (Activation)    (None, 43, 43, 8)         0         
_________________________________________________________________
max_pooling2d_1 (MaxPooling2 (None, 21, 21, 8)         0         
_________________________________________________________________
global_average_pooling2d (Gl (None, 8)                 0         
_________________________________________________________________
flatten (Flatten)            (None, 8)                 0         
_________________________________________________________________
dense (Dense)                (None, 2)                 18        
_________________________________________________________________
activation_2 (Activation)    (None, 2)                 0         
=================================================================
Total params: 826
Trainable params: 826
Non-trainable params: 0
_________________________________________________________________
WARNING:tensorflow:From source/train.py:141: Model.fit_generator (from tensorflow.python.keras.engine.training) is deprecated and will be removed in a future version.
Instructions for updating:
Please use Model.fit, which supports generators.
…
