…
2020-03-13 06:28:22.083121: I tensorflow/compiler/xla/service/service.cc:176]   StreamExecutor device (0): GeForce GTX 1080 Ti, Compute Capability 6.1
2020-03-13 06:28:22.083206: I tensorflow/core/common_runtime/gpu/gpu_device.cc:1096] Device interconnect StreamExecutor with strength 1 edge matrix:
2020-03-13 06:28:22.083227: I tensorflow/core/common_runtime/gpu/gpu_device.cc:1102]      
Model: "sequential"
_________________________________________________________________
Layer (type)                 Output Shape              Param #   
=================================================================
conv2d (Conv2D)              (None, 86, 86, 16)        448       
_________________________________________________________________
activation (Activation)      (None, 86, 86, 16)        0         
_________________________________________________________________
max_pooling2d (MaxPooling2D) (None, 43, 43, 16)        0         
_________________________________________________________________
dropout (Dropout)            (None, 43, 43, 16)        0         
_________________________________________________________________
conv2d_1 (Conv2D)            (None, 43, 43, 16)        2320      
_________________________________________________________________
activation_1 (Activation)    (None, 43, 43, 16)        0         
_________________________________________________________________
max_pooling2d_1 (MaxPooling2 (None, 21, 21, 16)        0         
_________________________________________________________________
dropout_1 (Dropout)          (None, 21, 21, 16)        0         
_________________________________________________________________
global_average_pooling2d (Gl (None, 16)                0         
_________________________________________________________________
dropout_2 (Dropout)          (None, 16)                0         
_________________________________________________________________
flatten (Flatten)            (None, 16)                0         
_________________________________________________________________
dense (Dense)                (None, 2)                 34        
_________________________________________________________________
activation_2 (Activation)    (None, 2)                 0         
=================================================================
Total params: 2,802
Trainable params: 2,802
Non-trainable params: 0
_________________________________________________________________
WARNING:tensorflow:From source/train.py:141: Model.fit_generator (from tensorflow.python.keras.engine.training) is deprecated and will be removed in a future version.
Instructions for updating:
…
